2021-06-26 18:02:26,499 | train | INFO | ===== Review Model Architecture =====
2021-06-26 18:02:26,499 | train | INFO | DeepLabV3Plus(
  (encoder): EfficientNetEncoder(
    (conv_stem): Conv2d(3, 48, kernel_size=(3, 3), stride=(2, 2), padding=(1, 1), bias=False)
    (bn1): BatchNorm2d(48, eps=1e-05, momentum=0.1, affine=True, track_running_stats=True)
    (act1): Swish()
    (blocks): Sequential(
      (0): Sequential(
        (0): DepthwiseSeparableConv(
          (conv_dw): Conv2d(48, 48, kernel_size=(3, 3), stride=(1, 1), padding=(1, 1), groups=48, bias=False)
          (bn1): BatchNorm2d(48, eps=1e-05, momentum=0.1, affine=True, track_running_stats=True)
          (act1): Swish()
          (se): SqueezeExcite(
            (conv_reduce): Conv2d(48, 12, kernel_size=(1, 1), stride=(1, 1))
            (act1): Swish()
            (conv_expand): Conv2d(12, 48, kernel_size=(1, 1), stride=(1, 1))
          )
          (conv_pw): Conv2d(48, 24, kernel_size=(1, 1), stride=(1, 1), bias=False)
          (bn2): BatchNorm2d(24, eps=1e-05, momentum=0.1, affine=True, track_running_stats=True)
          (act2): Identity()
        )
        (1): DepthwiseSeparableConv(
          (conv_dw): Conv2d(24, 24, kernel_size=(3, 3), stride=(1, 1), padding=(1, 1), groups=24, bias=False)
          (bn1): BatchNorm2d(24, eps=1e-05, momentum=0.1, affine=True, track_running_stats=True)
          (act1): Swish()
          (se): SqueezeExcite(
            (conv_reduce): Conv2d(24, 6, kernel_size=(1, 1), stride=(1, 1))
            (act1): Swish()
            (conv_expand): Conv2d(6, 24, kernel_size=(1, 1), stride=(1, 1))
          )
          (conv_pw): Conv2d(24, 24, kernel_size=(1, 1), stride=(1, 1), bias=False)
          (bn2): BatchNorm2d(24, eps=1e-05, momentum=0.1, affine=True, track_running_stats=True)
          (act2): Identity()
        )
      )
      (1): Sequential(
        (0): InvertedResidual(
          (conv_pw): Conv2d(24, 144, kernel_size=(1, 1), stride=(1, 1), bias=False)
          (bn1): BatchNorm2d(144, eps=1e-05, momentum=0.1, affine=True, track_running_stats=True)
          (act1): Swish()
          (conv_dw): Conv2d(144, 144, kernel_size=(3, 3), stride=(2, 2), padding=(1, 1), groups=144, bias=False)
          (bn2): BatchNorm2d(144, eps=1e-05, momentum=0.1, affine=True, track_running_stats=True)
          (act2): Swish()
          (se): SqueezeExcite(
            (conv_reduce): Conv2d(144, 6, kernel_size=(1, 1), stride=(1, 1))
            (act1): Swish()
            (conv_expand): Conv2d(6, 144, kernel_size=(1, 1), stride=(1, 1))
          )
          (conv_pwl): Conv2d(144, 32, kernel_size=(1, 1), stride=(1, 1), bias=False)
          (bn3): BatchNorm2d(32, eps=1e-05, momentum=0.1, affine=True, track_running_stats=True)
        )
        (1): InvertedResidual(
          (conv_pw): Conv2d(32, 192, kernel_size=(1, 1), stride=(1, 1), bias=False)
          (bn1): BatchNorm2d(192, eps=1e-05, momentum=0.1, affine=True, track_running_stats=True)
          (act1): Swish()
          (conv_dw): Conv2d(192, 192, kernel_size=(3, 3), stride=(1, 1), padding=(1, 1), groups=192, bias=False)
          (bn2): BatchNorm2d(192, eps=1e-05, momentum=0.1, affine=True, track_running_stats=True)
          (act2): Swish()
          (se): SqueezeExcite(
            (conv_reduce): Conv2d(192, 8, kernel_size=(1, 1), stride=(1, 1))
            (act1): Swish()
            (conv_expand): Conv2d(8, 192, kernel_size=(1, 1), stride=(1, 1))
          )
          (conv_pwl): Conv2d(192, 32, kernel_size=(1, 1), stride=(1, 1), bias=False)
          (bn3): BatchNorm2d(32, eps=1e-05, momentum=0.1, affine=True, track_running_stats=True)
        )
        (2): InvertedResidual(
          (conv_pw): Conv2d(32, 192, kernel_size=(1, 1), stride=(1, 1), bias=False)
          (bn1): BatchNorm2d(192, eps=1e-05, momentum=0.1, affine=True, track_running_stats=True)
          (act1): Swish()
          (conv_dw): Conv2d(192, 192, kernel_size=(3, 3), stride=(1, 1), padding=(1, 1), groups=192, bias=False)
          (bn2): BatchNorm2d(192, eps=1e-05, momentum=0.1, affine=True, track_running_stats=True)
          (act2): Swish()
          (se): SqueezeExcite(
            (conv_reduce): Conv2d(192, 8, kernel_size=(1, 1), stride=(1, 1))
            (act1): Swish()
            (conv_expand): Conv2d(8, 192, kernel_size=(1, 1), stride=(1, 1))
          )
          (conv_pwl): Conv2d(192, 32, kernel_size=(1, 1), stride=(1, 1), bias=False)
          (bn3): BatchNorm2d(32, eps=1e-05, momentum=0.1, affine=True, track_running_stats=True)
        )
        (3): InvertedResidual(
          (conv_pw): Conv2d(32, 192, kernel_size=(1, 1), stride=(1, 1), bias=False)
          (bn1): BatchNorm2d(192, eps=1e-05, momentum=0.1, affine=True, track_running_stats=True)
          (act1): Swish()
          (conv_dw): Conv2d(192, 192, kernel_size=(3, 3), stride=(1, 1), padding=(1, 1), groups=192, bias=False)
          (bn2): BatchNorm2d(192, eps=1e-05, momentum=0.1, affine=True, track_running_stats=True)
          (act2): Swish()
          (se): SqueezeExcite(
            (conv_reduce): Conv2d(192, 8, kernel_size=(1, 1), stride=(1, 1))
            (act1): Swish()
            (conv_expand): Conv2d(8, 192, kernel_size=(1, 1), stride=(1, 1))
          )
          (conv_pwl): Conv2d(192, 32, kernel_size=(1, 1), stride=(1, 1), bias=False)
          (bn3): BatchNorm2d(32, eps=1e-05, momentum=0.1, affine=True, track_running_stats=True)
        )
      )
      (2): Sequential(
        (0): InvertedResidual(
          (conv_pw): Conv2d(32, 192, kernel_size=(1, 1), stride=(1, 1), bias=False)
          (bn1): BatchNorm2d(192, eps=1e-05, momentum=0.1, affine=True, track_running_stats=True)
          (act1): Swish()
          (conv_dw): Conv2d(192, 192, kernel_size=(5, 5), stride=(2, 2), padding=(2, 2), groups=192, bias=False)
          (bn2): BatchNorm2d(192, eps=1e-05, momentum=0.1, affine=True, track_running_stats=True)
          (act2): Swish()
          (se): SqueezeExcite(
            (conv_reduce): Conv2d(192, 8, kernel_size=(1, 1), stride=(1, 1))
            (act1): Swish()
            (conv_expand): Conv2d(8, 192, kernel_size=(1, 1), stride=(1, 1))
          )
          (conv_pwl): Conv2d(192, 56, kernel_size=(1, 1), stride=(1, 1), bias=False)
          (bn3): BatchNorm2d(56, eps=1e-05, momentum=0.1, affine=True, track_running_stats=True)
        )
        (1): InvertedResidual(
          (conv_pw): Conv2d(56, 336, kernel_size=(1, 1), stride=(1, 1), bias=False)
          (bn1): BatchNorm2d(336, eps=1e-05, momentum=0.1, affine=True, track_running_stats=True)
          (act1): Swish()
          (conv_dw): Conv2d(336, 336, kernel_size=(5, 5), stride=(1, 1), padding=(2, 2), groups=336, bias=False)
          (bn2): BatchNorm2d(336, eps=1e-05, momentum=0.1, affine=True, track_running_stats=True)
          (act2): Swish()
          (se): SqueezeExcite(
            (conv_reduce): Conv2d(336, 14, kernel_size=(1, 1), stride=(1, 1))
            (act1): Swish()
            (conv_expand): Conv2d(14, 336, kernel_size=(1, 1), stride=(1, 1))
          )
          (conv_pwl): Conv2d(336, 56, kernel_size=(1, 1), stride=(1, 1), bias=False)
          (bn3): BatchNorm2d(56, eps=1e-05, momentum=0.1, affine=True, track_running_stats=True)
        )
        (2): InvertedResidual(
          (conv_pw): Conv2d(56, 336, kernel_size=(1, 1), stride=(1, 1), bias=False)
          (bn1): BatchNorm2d(336, eps=1e-05, momentum=0.1, affine=True, track_running_stats=True)
          (act1): Swish()
          (conv_dw): Conv2d(336, 336, kernel_size=(5, 5), stride=(1, 1), padding=(2, 2), groups=336, bias=False)
          (bn2): BatchNorm2d(336, eps=1e-05, momentum=0.1, affine=True, track_running_stats=True)
          (act2): Swish()
          (se): SqueezeExcite(
            (conv_reduce): Conv2d(336, 14, kernel_size=(1, 1), stride=(1, 1))
            (act1): Swish()
            (conv_expand): Conv2d(14, 336, kernel_size=(1, 1), stride=(1, 1))
          )
          (conv_pwl): Conv2d(336, 56, kernel_size=(1, 1), stride=(1, 1), bias=False)
          (bn3): BatchNorm2d(56, eps=1e-05, momentum=0.1, affine=True, track_running_stats=True)
        )
        (3): InvertedResidual(
          (conv_pw): Conv2d(56, 336, kernel_size=(1, 1), stride=(1, 1), bias=False)
          (bn1): BatchNorm2d(336, eps=1e-05, momentum=0.1, affine=True, track_running_stats=True)
          (act1): Swish()
          (conv_dw): Conv2d(336, 336, kernel_size=(5, 5), stride=(1, 1), padding=(2, 2), groups=336, bias=False)
          (bn2): BatchNorm2d(336, eps=1e-05, momentum=0.1, affine=True, track_running_stats=True)
          (act2): Swish()
          (se): SqueezeExcite(
            (conv_reduce): Conv2d(336, 14, kernel_size=(1, 1), stride=(1, 1))
            (act1): Swish()
            (conv_expand): Conv2d(14, 336, kernel_size=(1, 1), stride=(1, 1))
          )
          (conv_pwl): Conv2d(336, 56, kernel_size=(1, 1), stride=(1, 1), bias=False)
          (bn3): BatchNorm2d(56, eps=1e-05, momentum=0.1, affine=True, track_running_stats=True)
        )
      )
      (3): Sequential(
        (0): InvertedResidual(
          (conv_pw): Conv2d(56, 336, kernel_size=(1, 1), stride=(1, 1), bias=False)
          (bn1): BatchNorm2d(336, eps=1e-05, momentum=0.1, affine=True, track_running_stats=True)
          (act1): Swish()
          (conv_dw): Conv2d(336, 336, kernel_size=(3, 3), stride=(2, 2), padding=(1, 1), groups=336, bias=False)
          (bn2): BatchNorm2d(336, eps=1e-05, momentum=0.1, affine=True, track_running_stats=True)
          (act2): Swish()
          (se): SqueezeExcite(
            (conv_reduce): Conv2d(336, 14, kernel_size=(1, 1), stride=(1, 1))
            (act1): Swish()
            (conv_expand): Conv2d(14, 336, kernel_size=(1, 1), stride=(1, 1))
          )
          (conv_pwl): Conv2d(336, 112, kernel_size=(1, 1), stride=(1, 1), bias=False)
          (bn3): BatchNorm2d(112, eps=1e-05, momentum=0.1, affine=True, track_running_stats=True)
        )
        (1): InvertedResidual(
          (conv_pw): Conv2d(112, 672, kernel_size=(1, 1), stride=(1, 1), bias=False)
          (bn1): BatchNorm2d(672, eps=1e-05, momentum=0.1, affine=True, track_running_stats=True)
          (act1): Swish()
          (conv_dw): Conv2d(672, 672, kernel_size=(3, 3), stride=(1, 1), padding=(1, 1), groups=672, bias=False)
          (bn2): BatchNorm2d(672, eps=1e-05, momentum=0.1, affine=True, track_running_stats=True)
          (act2): Swish()
          (se): SqueezeExcite(
            (conv_reduce): Conv2d(672, 28, kernel_size=(1, 1), stride=(1, 1))
            (act1): Swish()
            (conv_expand): Conv2d(28, 672, kernel_size=(1, 1), stride=(1, 1))
          )
          (conv_pwl): Conv2d(672, 112, kernel_size=(1, 1), stride=(1, 1), bias=False)
          (bn3): BatchNorm2d(112, eps=1e-05, momentum=0.1, affine=True, track_running_stats=True)
        )
        (2): InvertedResidual(
          (conv_pw): Conv2d(112, 672, kernel_size=(1, 1), stride=(1, 1), bias=False)
          (bn1): BatchNorm2d(672, eps=1e-05, momentum=0.1, affine=True, track_running_stats=True)
          (act1): Swish()
          (conv_dw): Conv2d(672, 672, kernel_size=(3, 3), stride=(1, 1), padding=(1, 1), groups=672, bias=False)
          (bn2): BatchNorm2d(672, eps=1e-05, momentum=0.1, affine=True, track_running_stats=True)
          (act2): Swish()
          (se): SqueezeExcite(
            (conv_reduce): Conv2d(672, 28, kernel_size=(1, 1), stride=(1, 1))
            (act1): Swish()
            (conv_expand): Conv2d(28, 672, kernel_size=(1, 1), stride=(1, 1))
          )
          (conv_pwl): Conv2d(672, 112, kernel_size=(1, 1), stride=(1, 1), bias=False)
          (bn3): BatchNorm2d(112, eps=1e-05, momentum=0.1, affine=True, track_running_stats=True)
        )
        (3): InvertedResidual(
          (conv_pw): Conv2d(112, 672, kernel_size=(1, 1), stride=(1, 1), bias=False)
          (bn1): BatchNorm2d(672, eps=1e-05, momentum=0.1, affine=True, track_running_stats=True)
          (act1): Swish()
          (conv_dw): Conv2d(672, 672, kernel_size=(3, 3), stride=(1, 1), padding=(1, 1), groups=672, bias=False)
          (bn2): BatchNorm2d(672, eps=1e-05, momentum=0.1, affine=True, track_running_stats=True)
          (act2): Swish()
          (se): SqueezeExcite(
            (conv_reduce): Conv2d(672, 28, kernel_size=(1, 1), stride=(1, 1))
            (act1): Swish()
            (conv_expand): Conv2d(28, 672, kernel_size=(1, 1), stride=(1, 1))
          )
          (conv_pwl): Conv2d(672, 112, kernel_size=(1, 1), stride=(1, 1), bias=False)
          (bn3): BatchNorm2d(112, eps=1e-05, momentum=0.1, affine=True, track_running_stats=True)
        )
        (4): InvertedResidual(
          (conv_pw): Conv2d(112, 672, kernel_size=(1, 1), stride=(1, 1), bias=False)
          (bn1): BatchNorm2d(672, eps=1e-05, momentum=0.1, affine=True, track_running_stats=True)
          (act1): Swish()
          (conv_dw): Conv2d(672, 672, kernel_size=(3, 3), stride=(1, 1), padding=(1, 1), groups=672, bias=False)
          (bn2): BatchNorm2d(672, eps=1e-05, momentum=0.1, affine=True, track_running_stats=True)
          (act2): Swish()
          (se): SqueezeExcite(
            (conv_reduce): Conv2d(672, 28, kernel_size=(1, 1), stride=(1, 1))
            (act1): Swish()
            (conv_expand): Conv2d(28, 672, kernel_size=(1, 1), stride=(1, 1))
          )
          (conv_pwl): Conv2d(672, 112, kernel_size=(1, 1), stride=(1, 1), bias=False)
          (bn3): BatchNorm2d(112, eps=1e-05, momentum=0.1, affine=True, track_running_stats=True)
        )
        (5): InvertedResidual(
          (conv_pw): Conv2d(112, 672, kernel_size=(1, 1), stride=(1, 1), bias=False)
          (bn1): BatchNorm2d(672, eps=1e-05, momentum=0.1, affine=True, track_running_stats=True)
          (act1): Swish()
          (conv_dw): Conv2d(672, 672, kernel_size=(3, 3), stride=(1, 1), padding=(1, 1), groups=672, bias=False)
          (bn2): BatchNorm2d(672, eps=1e-05, momentum=0.1, affine=True, track_running_stats=True)
          (act2): Swish()
          (se): SqueezeExcite(
            (conv_reduce): Conv2d(672, 28, kernel_size=(1, 1), stride=(1, 1))
            (act1): Swish()
            (conv_expand): Conv2d(28, 672, kernel_size=(1, 1), stride=(1, 1))
          )
          (conv_pwl): Conv2d(672, 112, kernel_size=(1, 1), stride=(1, 1), bias=False)
          (bn3): BatchNorm2d(112, eps=1e-05, momentum=0.1, affine=True, track_running_stats=True)
        )
      )
      (4): Sequential(
        (0): InvertedResidual(
          (conv_pw): Conv2d(112, 672, kernel_size=(1, 1), stride=(1, 1), bias=False)
          (bn1): BatchNorm2d(672, eps=1e-05, momentum=0.1, affine=True, track_running_stats=True)
          (act1): Swish()
          (conv_dw): Conv2d(672, 672, kernel_size=(5, 5), stride=(1, 1), padding=(2, 2), groups=672, bias=False)
          (bn2): BatchNorm2d(672, eps=1e-05, momentum=0.1, affine=True, track_running_stats=True)
          (act2): Swish()
          (se): SqueezeExcite(
            (conv_reduce): Conv2d(672, 28, kernel_size=(1, 1), stride=(1, 1))
            (act1): Swish()
            (conv_expand): Conv2d(28, 672, kernel_size=(1, 1), stride=(1, 1))
          )
          (conv_pwl): Conv2d(672, 160, kernel_size=(1, 1), stride=(1, 1), bias=False)
          (bn3): BatchNorm2d(160, eps=1e-05, momentum=0.1, affine=True, track_running_stats=True)
        )
        (1): InvertedResidual(
          (conv_pw): Conv2d(160, 960, kernel_size=(1, 1), stride=(1, 1), bias=False)
          (bn1): BatchNorm2d(960, eps=1e-05, momentum=0.1, affine=True, track_running_stats=True)
          (act1): Swish()
          (conv_dw): Conv2d(960, 960, kernel_size=(5, 5), stride=(1, 1), padding=(2, 2), groups=960, bias=False)
          (bn2): BatchNorm2d(960, eps=1e-05, momentum=0.1, affine=True, track_running_stats=True)
          (act2): Swish()
          (se): SqueezeExcite(
            (conv_reduce): Conv2d(960, 40, kernel_size=(1, 1), stride=(1, 1))
            (act1): Swish()
            (conv_expand): Conv2d(40, 960, kernel_size=(1, 1), stride=(1, 1))
          )
          (conv_pwl): Conv2d(960, 160, kernel_size=(1, 1), stride=(1, 1), bias=False)
          (bn3): BatchNorm2d(160, eps=1e-05, momentum=0.1, affine=True, track_running_stats=True)
        )
        (2): InvertedResidual(
          (conv_pw): Conv2d(160, 960, kernel_size=(1, 1), stride=(1, 1), bias=False)
          (bn1): BatchNorm2d(960, eps=1e-05, momentum=0.1, affine=True, track_running_stats=True)
          (act1): Swish()
          (conv_dw): Conv2d(960, 960, kernel_size=(5, 5), stride=(1, 1), padding=(2, 2), groups=960, bias=False)
          (bn2): BatchNorm2d(960, eps=1e-05, momentum=0.1, affine=True, track_running_stats=True)
          (act2): Swish()
          (se): SqueezeExcite(
            (conv_reduce): Conv2d(960, 40, kernel_size=(1, 1), stride=(1, 1))
            (act1): Swish()
            (conv_expand): Conv2d(40, 960, kernel_size=(1, 1), stride=(1, 1))
          )
          (conv_pwl): Conv2d(960, 160, kernel_size=(1, 1), stride=(1, 1), bias=False)
          (bn3): BatchNorm2d(160, eps=1e-05, momentum=0.1, affine=True, track_running_stats=True)
        )
        (3): InvertedResidual(
          (conv_pw): Conv2d(160, 960, kernel_size=(1, 1), stride=(1, 1), bias=False)
          (bn1): BatchNorm2d(960, eps=1e-05, momentum=0.1, affine=True, track_running_stats=True)
          (act1): Swish()
          (conv_dw): Conv2d(960, 960, kernel_size=(5, 5), stride=(1, 1), padding=(2, 2), groups=960, bias=False)
          (bn2): BatchNorm2d(960, eps=1e-05, momentum=0.1, affine=True, track_running_stats=True)
          (act2): Swish()
          (se): SqueezeExcite(
            (conv_reduce): Conv2d(960, 40, kernel_size=(1, 1), stride=(1, 1))
            (act1): Swish()
            (conv_expand): Conv2d(40, 960, kernel_size=(1, 1), stride=(1, 1))
          )
          (conv_pwl): Conv2d(960, 160, kernel_size=(1, 1), stride=(1, 1), bias=False)
          (bn3): BatchNorm2d(160, eps=1e-05, momentum=0.1, affine=True, track_running_stats=True)
        )
        (4): InvertedResidual(
          (conv_pw): Conv2d(160, 960, kernel_size=(1, 1), stride=(1, 1), bias=False)
          (bn1): BatchNorm2d(960, eps=1e-05, momentum=0.1, affine=True, track_running_stats=True)
          (act1): Swish()
          (conv_dw): Conv2d(960, 960, kernel_size=(5, 5), stride=(1, 1), padding=(2, 2), groups=960, bias=False)
          (bn2): BatchNorm2d(960, eps=1e-05, momentum=0.1, affine=True, track_running_stats=True)
          (act2): Swish()
          (se): SqueezeExcite(
            (conv_reduce): Conv2d(960, 40, kernel_size=(1, 1), stride=(1, 1))
            (act1): Swish()
            (conv_expand): Conv2d(40, 960, kernel_size=(1, 1), stride=(1, 1))
          )
          (conv_pwl): Conv2d(960, 160, kernel_size=(1, 1), stride=(1, 1), bias=False)
          (bn3): BatchNorm2d(160, eps=1e-05, momentum=0.1, affine=True, track_running_stats=True)
        )
        (5): InvertedResidual(
          (conv_pw): Conv2d(160, 960, kernel_size=(1, 1), stride=(1, 1), bias=False)
          (bn1): BatchNorm2d(960, eps=1e-05, momentum=0.1, affine=True, track_running_stats=True)
          (act1): Swish()
          (conv_dw): Conv2d(960, 960, kernel_size=(5, 5), stride=(1, 1), padding=(2, 2), groups=960, bias=False)
          (bn2): BatchNorm2d(960, eps=1e-05, momentum=0.1, affine=True, track_running_stats=True)
          (act2): Swish()
          (se): SqueezeExcite(
            (conv_reduce): Conv2d(960, 40, kernel_size=(1, 1), stride=(1, 1))
            (act1): Swish()
            (conv_expand): Conv2d(40, 960, kernel_size=(1, 1), stride=(1, 1))
          )
          (conv_pwl): Conv2d(960, 160, kernel_size=(1, 1), stride=(1, 1), bias=False)
          (bn3): BatchNorm2d(160, eps=1e-05, momentum=0.1, affine=True, track_running_stats=True)
        )
      )
      (5): Sequential(
        (0): InvertedResidual(
          (conv_pw): Conv2d(160, 960, kernel_size=(1, 1), stride=(1, 1), dilation=(2, 2), bias=False)
          (bn1): BatchNorm2d(960, eps=1e-05, momentum=0.1, affine=True, track_running_stats=True)
          (act1): Swish()
          (conv_dw): Conv2d(960, 960, kernel_size=(5, 5), stride=(1, 1), padding=(4, 4), dilation=(2, 2), groups=960, bias=False)
          (bn2): BatchNorm2d(960, eps=1e-05, momentum=0.1, affine=True, track_running_stats=True)
          (act2): Swish()
          (se): SqueezeExcite(
            (conv_reduce): Conv2d(960, 40, kernel_size=(1, 1), stride=(1, 1), dilation=(2, 2))
            (act1): Swish()
            (conv_expand): Conv2d(40, 960, kernel_size=(1, 1), stride=(1, 1), dilation=(2, 2))
          )
          (conv_pwl): Conv2d(960, 272, kernel_size=(1, 1), stride=(1, 1), dilation=(2, 2), bias=False)
          (bn3): BatchNorm2d(272, eps=1e-05, momentum=0.1, affine=True, track_running_stats=True)
        )
        (1): InvertedResidual(
          (conv_pw): Conv2d(272, 1632, kernel_size=(1, 1), stride=(1, 1), dilation=(2, 2), bias=False)
          (bn1): BatchNorm2d(1632, eps=1e-05, momentum=0.1, affine=True, track_running_stats=True)
          (act1): Swish()
          (conv_dw): Conv2d(1632, 1632, kernel_size=(5, 5), stride=(1, 1), padding=(4, 4), dilation=(2, 2), groups=1632, bias=False)
          (bn2): BatchNorm2d(1632, eps=1e-05, momentum=0.1, affine=True, track_running_stats=True)
          (act2): Swish()
          (se): SqueezeExcite(
            (conv_reduce): Conv2d(1632, 68, kernel_size=(1, 1), stride=(1, 1), dilation=(2, 2))
            (act1): Swish()
            (conv_expand): Conv2d(68, 1632, kernel_size=(1, 1), stride=(1, 1), dilation=(2, 2))
          )
          (conv_pwl): Conv2d(1632, 272, kernel_size=(1, 1), stride=(1, 1), dilation=(2, 2), bias=False)
          (bn3): BatchNorm2d(272, eps=1e-05, momentum=0.1, affine=True, track_running_stats=True)
        )
        (2): InvertedResidual(
          (conv_pw): Conv2d(272, 1632, kernel_size=(1, 1), stride=(1, 1), dilation=(2, 2), bias=False)
          (bn1): BatchNorm2d(1632, eps=1e-05, momentum=0.1, affine=True, track_running_stats=True)
          (act1): Swish()
          (conv_dw): Conv2d(1632, 1632, kernel_size=(5, 5), stride=(1, 1), padding=(4, 4), dilation=(2, 2), groups=1632, bias=False)
          (bn2): BatchNorm2d(1632, eps=1e-05, momentum=0.1, affine=True, track_running_stats=True)
          (act2): Swish()
          (se): SqueezeExcite(
            (conv_reduce): Conv2d(1632, 68, kernel_size=(1, 1), stride=(1, 1), dilation=(2, 2))
            (act1): Swish()
            (conv_expand): Conv2d(68, 1632, kernel_size=(1, 1), stride=(1, 1), dilation=(2, 2))
          )
          (conv_pwl): Conv2d(1632, 272, kernel_size=(1, 1), stride=(1, 1), dilation=(2, 2), bias=False)
          (bn3): BatchNorm2d(272, eps=1e-05, momentum=0.1, affine=True, track_running_stats=True)
        )
        (3): InvertedResidual(
          (conv_pw): Conv2d(272, 1632, kernel_size=(1, 1), stride=(1, 1), dilation=(2, 2), bias=False)
          (bn1): BatchNorm2d(1632, eps=1e-05, momentum=0.1, affine=True, track_running_stats=True)
          (act1): Swish()
          (conv_dw): Conv2d(1632, 1632, kernel_size=(5, 5), stride=(1, 1), padding=(4, 4), dilation=(2, 2), groups=1632, bias=False)
          (bn2): BatchNorm2d(1632, eps=1e-05, momentum=0.1, affine=True, track_running_stats=True)
          (act2): Swish()
          (se): SqueezeExcite(
            (conv_reduce): Conv2d(1632, 68, kernel_size=(1, 1), stride=(1, 1), dilation=(2, 2))
            (act1): Swish()
            (conv_expand): Conv2d(68, 1632, kernel_size=(1, 1), stride=(1, 1), dilation=(2, 2))
          )
          (conv_pwl): Conv2d(1632, 272, kernel_size=(1, 1), stride=(1, 1), dilation=(2, 2), bias=False)
          (bn3): BatchNorm2d(272, eps=1e-05, momentum=0.1, affine=True, track_running_stats=True)
        )
        (4): InvertedResidual(
          (conv_pw): Conv2d(272, 1632, kernel_size=(1, 1), stride=(1, 1), dilation=(2, 2), bias=False)
          (bn1): BatchNorm2d(1632, eps=1e-05, momentum=0.1, affine=True, track_running_stats=True)
          (act1): Swish()
          (conv_dw): Conv2d(1632, 1632, kernel_size=(5, 5), stride=(1, 1), padding=(4, 4), dilation=(2, 2), groups=1632, bias=False)
          (bn2): BatchNorm2d(1632, eps=1e-05, momentum=0.1, affine=True, track_running_stats=True)
          (act2): Swish()
          (se): SqueezeExcite(
            (conv_reduce): Conv2d(1632, 68, kernel_size=(1, 1), stride=(1, 1), dilation=(2, 2))
            (act1): Swish()
            (conv_expand): Conv2d(68, 1632, kernel_size=(1, 1), stride=(1, 1), dilation=(2, 2))
          )
          (conv_pwl): Conv2d(1632, 272, kernel_size=(1, 1), stride=(1, 1), dilation=(2, 2), bias=False)
          (bn3): BatchNorm2d(272, eps=1e-05, momentum=0.1, affine=True, track_running_stats=True)
        )
        (5): InvertedResidual(
          (conv_pw): Conv2d(272, 1632, kernel_size=(1, 1), stride=(1, 1), dilation=(2, 2), bias=False)
          (bn1): BatchNorm2d(1632, eps=1e-05, momentum=0.1, affine=True, track_running_stats=True)
          (act1): Swish()
          (conv_dw): Conv2d(1632, 1632, kernel_size=(5, 5), stride=(1, 1), padding=(4, 4), dilation=(2, 2), groups=1632, bias=False)
          (bn2): BatchNorm2d(1632, eps=1e-05, momentum=0.1, affine=True, track_running_stats=True)
          (act2): Swish()
          (se): SqueezeExcite(
            (conv_reduce): Conv2d(1632, 68, kernel_size=(1, 1), stride=(1, 1), dilation=(2, 2))
            (act1): Swish()
            (conv_expand): Conv2d(68, 1632, kernel_size=(1, 1), stride=(1, 1), dilation=(2, 2))
          )
          (conv_pwl): Conv2d(1632, 272, kernel_size=(1, 1), stride=(1, 1), dilation=(2, 2), bias=False)
          (bn3): BatchNorm2d(272, eps=1e-05, momentum=0.1, affine=True, track_running_stats=True)
        )
        (6): InvertedResidual(
          (conv_pw): Conv2d(272, 1632, kernel_size=(1, 1), stride=(1, 1), dilation=(2, 2), bias=False)
          (bn1): BatchNorm2d(1632, eps=1e-05, momentum=0.1, affine=True, track_running_stats=True)
          (act1): Swish()
          (conv_dw): Conv2d(1632, 1632, kernel_size=(5, 5), stride=(1, 1), padding=(4, 4), dilation=(2, 2), groups=1632, bias=False)
          (bn2): BatchNorm2d(1632, eps=1e-05, momentum=0.1, affine=True, track_running_stats=True)
          (act2): Swish()
          (se): SqueezeExcite(
            (conv_reduce): Conv2d(1632, 68, kernel_size=(1, 1), stride=(1, 1), dilation=(2, 2))
            (act1): Swish()
            (conv_expand): Conv2d(68, 1632, kernel_size=(1, 1), stride=(1, 1), dilation=(2, 2))
          )
          (conv_pwl): Conv2d(1632, 272, kernel_size=(1, 1), stride=(1, 1), dilation=(2, 2), bias=False)
          (bn3): BatchNorm2d(272, eps=1e-05, momentum=0.1, affine=True, track_running_stats=True)
        )
        (7): InvertedResidual(
          (conv_pw): Conv2d(272, 1632, kernel_size=(1, 1), stride=(1, 1), dilation=(2, 2), bias=False)
          (bn1): BatchNorm2d(1632, eps=1e-05, momentum=0.1, affine=True, track_running_stats=True)
          (act1): Swish()
          (conv_dw): Conv2d(1632, 1632, kernel_size=(5, 5), stride=(1, 1), padding=(4, 4), dilation=(2, 2), groups=1632, bias=False)
          (bn2): BatchNorm2d(1632, eps=1e-05, momentum=0.1, affine=True, track_running_stats=True)
          (act2): Swish()
          (se): SqueezeExcite(
            (conv_reduce): Conv2d(1632, 68, kernel_size=(1, 1), stride=(1, 1), dilation=(2, 2))
            (act1): Swish()
            (conv_expand): Conv2d(68, 1632, kernel_size=(1, 1), stride=(1, 1), dilation=(2, 2))
          )
          (conv_pwl): Conv2d(1632, 272, kernel_size=(1, 1), stride=(1, 1), dilation=(2, 2), bias=False)
          (bn3): BatchNorm2d(272, eps=1e-05, momentum=0.1, affine=True, track_running_stats=True)
        )
      )
      (6): Sequential(
        (0): InvertedResidual(
          (conv_pw): Conv2d(272, 1632, kernel_size=(1, 1), stride=(1, 1), dilation=(2, 2), bias=False)
          (bn1): BatchNorm2d(1632, eps=1e-05, momentum=0.1, affine=True, track_running_stats=True)
          (act1): Swish()
          (conv_dw): Conv2d(1632, 1632, kernel_size=(3, 3), stride=(1, 1), padding=(2, 2), dilation=(2, 2), groups=1632, bias=False)
          (bn2): BatchNorm2d(1632, eps=1e-05, momentum=0.1, affine=True, track_running_stats=True)
          (act2): Swish()
          (se): SqueezeExcite(
            (conv_reduce): Conv2d(1632, 68, kernel_size=(1, 1), stride=(1, 1), dilation=(2, 2))
            (act1): Swish()
            (conv_expand): Conv2d(68, 1632, kernel_size=(1, 1), stride=(1, 1), dilation=(2, 2))
          )
          (conv_pwl): Conv2d(1632, 448, kernel_size=(1, 1), stride=(1, 1), dilation=(2, 2), bias=False)
          (bn3): BatchNorm2d(448, eps=1e-05, momentum=0.1, affine=True, track_running_stats=True)
        )
        (1): InvertedResidual(
          (conv_pw): Conv2d(448, 2688, kernel_size=(1, 1), stride=(1, 1), dilation=(2, 2), bias=False)
          (bn1): BatchNorm2d(2688, eps=1e-05, momentum=0.1, affine=True, track_running_stats=True)
          (act1): Swish()
          (conv_dw): Conv2d(2688, 2688, kernel_size=(3, 3), stride=(1, 1), padding=(2, 2), dilation=(2, 2), groups=2688, bias=False)
          (bn2): BatchNorm2d(2688, eps=1e-05, momentum=0.1, affine=True, track_running_stats=True)
          (act2): Swish()
          (se): SqueezeExcite(
            (conv_reduce): Conv2d(2688, 112, kernel_size=(1, 1), stride=(1, 1), dilation=(2, 2))
            (act1): Swish()
            (conv_expand): Conv2d(112, 2688, kernel_size=(1, 1), stride=(1, 1), dilation=(2, 2))
          )
          (conv_pwl): Conv2d(2688, 448, kernel_size=(1, 1), stride=(1, 1), dilation=(2, 2), bias=False)
          (bn3): BatchNorm2d(448, eps=1e-05, momentum=0.1, affine=True, track_running_stats=True)
        )
      )
    )
    (conv_head): Conv2d(448, 1792, kernel_size=(1, 1), stride=(1, 1), bias=False)
    (bn2): BatchNorm2d(1792, eps=1e-05, momentum=0.1, affine=True, track_running_stats=True)
    (act2): Swish()
    (global_pool): SelectAdaptivePool2d (pool_type=avg, flatten=True)
  )
  (decoder): DeepLabV3PlusDecoder(
    (aspp): Sequential(
      (0): ASPP(
        (convs): ModuleList(
          (0): Sequential(
            (0): Conv2d(448, 256, kernel_size=(1, 1), stride=(1, 1), bias=False)
            (1): BatchNorm2d(256, eps=1e-05, momentum=0.1, affine=True, track_running_stats=True)
            (2): ReLU()
          )
          (1): ASPPSeparableConv(
            (0): SeparableConv2d(
              (0): Conv2d(448, 448, kernel_size=(3, 3), stride=(1, 1), padding=(12, 12), dilation=(12, 12), groups=448, bias=False)
              (1): Conv2d(448, 256, kernel_size=(1, 1), stride=(1, 1), bias=False)
            )
            (1): BatchNorm2d(256, eps=1e-05, momentum=0.1, affine=True, track_running_stats=True)
            (2): ReLU()
          )
          (2): ASPPSeparableConv(
            (0): SeparableConv2d(
              (0): Conv2d(448, 448, kernel_size=(3, 3), stride=(1, 1), padding=(24, 24), dilation=(24, 24), groups=448, bias=False)
              (1): Conv2d(448, 256, kernel_size=(1, 1), stride=(1, 1), bias=False)
            )
            (1): BatchNorm2d(256, eps=1e-05, momentum=0.1, affine=True, track_running_stats=True)
            (2): ReLU()
          )
          (3): ASPPSeparableConv(
            (0): SeparableConv2d(
              (0): Conv2d(448, 448, kernel_size=(3, 3), stride=(1, 1), padding=(36, 36), dilation=(36, 36), groups=448, bias=False)
              (1): Conv2d(448, 256, kernel_size=(1, 1), stride=(1, 1), bias=False)
            )
            (1): BatchNorm2d(256, eps=1e-05, momentum=0.1, affine=True, track_running_stats=True)
            (2): ReLU()
          )
          (4): ASPPPooling(
            (0): AdaptiveAvgPool2d(output_size=1)
            (1): Conv2d(448, 256, kernel_size=(1, 1), stride=(1, 1), bias=False)
            (2): BatchNorm2d(256, eps=1e-05, momentum=0.1, affine=True, track_running_stats=True)
            (3): ReLU()
          )
        )
        (project): Sequential(
          (0): Conv2d(1280, 256, kernel_size=(1, 1), stride=(1, 1), bias=False)
          (1): BatchNorm2d(256, eps=1e-05, momentum=0.1, affine=True, track_running_stats=True)
          (2): ReLU()
          (3): Dropout(p=0.5, inplace=False)
        )
      )
      (1): SeparableConv2d(
        (0): Conv2d(256, 256, kernel_size=(3, 3), stride=(1, 1), padding=(1, 1), groups=256, bias=False)
        (1): Conv2d(256, 256, kernel_size=(1, 1), stride=(1, 1), bias=False)
      )
      (2): BatchNorm2d(256, eps=1e-05, momentum=0.1, affine=True, track_running_stats=True)
      (3): ReLU()
    )
    (up): UpsamplingBilinear2d(scale_factor=4.0, mode=bilinear)
    (block1): Sequential(
      (0): Conv2d(32, 48, kernel_size=(1, 1), stride=(1, 1), bias=False)
      (1): BatchNorm2d(48, eps=1e-05, momentum=0.1, affine=True, track_running_stats=True)
      (2): ReLU()
    )
    (block2): Sequential(
      (0): SeparableConv2d(
        (0): Conv2d(304, 304, kernel_size=(3, 3), stride=(1, 1), padding=(1, 1), groups=304, bias=False)
        (1): Conv2d(304, 256, kernel_size=(1, 1), stride=(1, 1), bias=False)
      )
      (1): BatchNorm2d(256, eps=1e-05, momentum=0.1, affine=True, track_running_stats=True)
      (2): ReLU()
    )
  )
  (segmentation_head): SegmentationHead(
    (0): Conv2d(256, 1, kernel_size=(1, 1), stride=(1, 1))
    (1): UpsamplingBilinear2d(scale_factor=4.0, mode=bilinear)
    (2): Activation(
      (activation): Sigmoid()
    )
  )
) 

